notebooks/Tutorials/Learning PyTorch/Deep Learning with PyTorch A 60 Minute Blitz/cifar_net.pth (torch, 251391 bytes, 10 tensors)

conv1.weight f4 [6, 3, 5, 5]
0	0x3d84b692	0.06480135
1	0x3e37a1ec	0.17932862
2	0x3e0a8f2c	0.13531178
3	0x3eb8db1e	0.36104673
4	0xbc8d62dc	-0.017259054
5	0x3ea6a717	0.32549354
6	0x3f2e3404	0.6804812
7	0x3f058414	0.5215466
8	0x3ef8049d	0.4844102
9	0xbd2501c1	-0.040284876
10	0xbe114b45	-0.1418887
11	0xbd40fabd	-0.047114123
12	0xbe0c3f59	-0.1369604
13	0xbe706282	-0.23475078
14	0xbea9a741	-0.33135417
15	0xbeba1b95	-0.36349168
16	0xbf0614d5	-0.5237554
17	0xbf27e4a3	-0.65583247
18	0xbed1c5d3	-0.4097124
19	0xbe88d788	-0.26726937
20	0xbcfdf7e2	-0.031001989
21	0x3dddcb46	0.10829787
22	0xbd6e78fa	-0.05822084
23	0x3d15bc83	0.036556732
24	0xbd168cb3	-0.036755275
25	0xbd94bc11	-0.07262433
26	0xbc1a5dca	-0.009421775
27	0xbe0756ce	-0.13216707
28	0x3dde1756	0.10844295
29	0xbd4ecb57	-0.05048689
30	0x3e314a79	0.17313565
31	0x3f12ca14	0.57339597
32	0x3ea658cb	0.3248962
33	0x3ea069d3	0.31330737
34	0xbe2e090f	-0.16995643
35	0xbd0b4e2f	-0.03401011
36	0x3d028f78	0.031875104
37	0xbeb1528c	-0.3463329
38	0xbe7f6779	-0.24941815
39	0xbe159e15	-0.14611085
40	0xbeb42658	-0.35185504
41	0xbed10631	-0.40825036
42	0xbf05ccb6	-0.5226549
43	0xbe746cd0	-0.23869634
44	0xbd8215c2	-0.06351806
45	0x3dcf6004	0.101257354
46	0x3ed292c0	0.41127586
47	0x3e9e61c3	0.3093396
48	0x3eb37059	0.35046652
49	0x3e88df2b	0.26732764
50	0xbebb6abb	-0.36604866
51	0xbe8cf87e	-0.27533334
52	0xbe949bee	-0.29025215
53	0x3aa78d38	0.0012783175
54	0xbd225607	-0.039632823
55	0x3db5a0ab	0.088685356
56	0x3ef87741	0.48528484
57	0x3e3c827a	0.18409148
58	0x3e0d9025	0.13824518
59	0x3d14b673	0.03630681
60	0xbde2713c	-0.11056754
61	0x37ebc070	2.8103794e-05
62	0xbdbfe1f8	-0.09369272
63	0xbdac22b5	-0.08405057
64	0xbcab00b3	-0.020874357
65	0xbdfca668	-0.12336427
66	0xbe7468c2	-0.23868087
67	0xbeb3da11	-0.3512731
68	0xbcd5f9a3	-0.026120013
69	0x3d116d7c	0.035504803
70	0x3d52af76	0.051436864
71	0x3ee3fbda	0.44528085
72	0x3ee1e9b4	0.44123614
73	0x3eae1fd5	0.3400866
74	0x3e6bda85	0.23032577
75	0x3db2fadd	0.087392546
76	0xbcd2e97f	-0.025746105
77	0xbd1b27f8	-0.037879914
78	0x3b836fd5	0.004011134
79	0xbe46bdd6	-0.19408354
80	0x3e22b863	0.1589065
81	0x3eae1f2e	0.34008163
82	0x3eac6b43	0.33675584
83	0x3ebc5623	0.36784467
84	0x3e78264c	0.24233359
85	0x3d0196dc	0.03163801
86	0x3e292830	0.16519237
87	0x3e52909e	0.2056298
88	0x3ea5a7d7	0.32354614
89	0x3e4a6ba0	0.19767618
90	0xbd4a63aa	-0.049411453
91	0x3d2e366f	0.04253238
92	0x3dc92ab2	0.098225966
93	0x3d1cec7b	0.038311463
94	0x3e1529d7	0.14566742
95	0xbe62f4e7	-0.22163735
96	0xbd80a809	-0.0628205
97	0xbe3242c8	-0.17408288
98	0xbdca3571	-0.098734744
99	0xbb002289	-0.0019551835
100	0xbdaae3c2	-0.083442226
101	0x3dfb06e3	0.12257173
102	0x3e34ef5f	0.17669438
103	0x3db96d6a	0.09054072
104	0xbbc83855	-0.006110231
105	0x3c568638	0.013093524
106	0x3e4ecaba	0.20194522
107	0x3e6ed37e	0.23322865
108	0x3dd4b8e8	0.103868306
109	0x3d962606	0.07331471
110	0xbdf753ed	-0.120765544
111	0xbe2eb428	-0.17060912
112	0xbd552c49	-0.052044187
113	0x3cf45af3	0.029828524
114	0x3e081543	0.1328936
115	0xbe21e724	-0.1581083
116	0xbeb6755a	-0.35636407
117	0xbe86badb	-0.26314434
118	0xbdddb84a	-0.10826166
119	0xbca21262	-0.019784156
120	0xbe5f1dd7	-0.21788727
121	0xbe997d11	-0.2997823
122	0xbe8bfd33	-0.27341613
123	0xbe7e8167	-0.2485405
124	0xbe62ba0f	-0.22141288
125	0x3da57bfe	0.0808029
126	0x3d268031	0.040649597
127	0x3db7adfa	0.0896873
128	0x3dc4cb1e	0.09609054
129	0x3d954e66	0.07290344
130	0x3d1b4b17	0.037913408
131	0x3d641298	0.055681795
132	0x3d9a6aaa	0.07539876
133	0x3d7a4102	0.061097153
134	0x3d628f03	0.055312168
135	0xbe3aec06	-0.18254098
136	0xbdc5d9d3	-0.09660687
137	0x3b77db75	0.0037820016
138	0x3d301b5f	0.042994853
139	0x3d3c21b1	0.045930568
140	0xbe3816f7	-0.1797751
141	0xbd6be5b4	-0.05759211
142	0xbe0fd9f7	-0.1404799
143	0xbcc70be0	-0.024297655
144	0xbda9fa84	-0.08299735
145	0x3d0b7942	0.034051187
146	0xbd2da375	-0.042392213
147	0xbdda6900	-0.106645584
148	0xbd9722ea	-0.07379706
149	0xbe0bcd88	-0.13652623
150	0x3ea14a65	0.3150207
151	0x3eb3d695	0.3512465
152	0x3e3dfe6b	0.18554084
153	0x3de38837	0.11109965
154	0x3e143bf7	0.14476
155	0x3e81a2ae	0.25319427
156	0x3e0298de	0.12753627
157	0x3e206a5e	0.15665576
158	0xbd986181	-0.074404724
159	0x3d10ca7b	0.03534935
160	0x3cd2af2c	0.025718294
161	0xbe5e5002	-0.21710208
162	0x3dd8f6f2	0.10593976
163	0x3c400ae2	0.011721345
164	0x3db4585c	0.08805916
165	0x3aefc690	0.0018293429
166	0xbed49703	-0.41521463
167	0x3b26cc9c	0.0025451547
168	0x3ea87feb	0.32910094
169	0x3dfb2b51	0.12264121
170	0xbe3eb3c2	-0.1862326
171	0xbf0d6d8c	-0.5524528
172	0xbca69c35	-0.020338157
173	0x3d824073	0.06359949
174	0x3dcd504e	0.100250825
175	0xbe0f23f6	-0.13978562
176	0xbe0ce54c	-0.13759345
177	0xbe92bd3a	-0.28659993
178	0xbe91559a	-0.2838562
179	0xbe8c2226	-0.27369803
180	0xbd41f4c4	-0.047352567
181	0xbe33f684	-0.17574507
182	0xbe326f5f	-0.17425297
183	0xbe56add8	-0.20964754
184	0x3d3fd745	0.046836156
185	0xbe720407	-0.23634349
186	0xbe8c73e8	-0.2743218
187	0xbdbc256b	-0.091868244
188	0x3cbcee43	0.02306283
189	0x3c080bdd	0.00830361
190	0xbe2901c6	-0.16504583
191	0xbf124863	-0.57141703
192	0x3d4ef83c	0.050529703
193	0x3e86093a	0.26178914
194	0x3e4f0bac	0.20219296
195	0xbdb60efd	-0.088895775
196	0xbef36679	-0.47539118
197	0xbd5b9077	-0.05360457
198	0x3dcae753	0.09907403
199	0x3ea891ac	0.3292364
200	0x3c92d85a	0.01792543
201	0xbc55daf0	-0.013052687
202	0x3de2da58	0.11076802
203	0xbdb7a7cc	-0.089675516
204	0xbe09f29f	-0.13471459
205	0x3cea6436	0.028612237
206	0xbb2799af	-0.002557378
207	0x3d65fc1a	0.056148626
208	0x3bdb0f58	0.0066851787
209	0x3de31c6f	0.11089408
210	0xbc065ad4	-0.008200366
211	0xbdb6f5b2	-0.089335814
212	0x3d2bbbae	0.041927032
213	0x3e36ac55	0.17839177
214	0x3d6bacee	0.057537965
215	0xbdce4d32	-0.100733176
216	0xbef42007	-0.47680685
217	0x3d0537cd	0.03252392
218	0x3ece8bc0	0.40340996
219	0x3e68f5d5	0.22750027
220	0xbbd340f7	-0.0064469534
221	0xbec28e4c	-0.3799919
222	0xbcad5e9d	-0.02116328
223	0x3ecb31ff	0.39686581
224	0x3eb3bf96	0.35107106
225	0xbe284faa	-0.1643664
226	0xbddec600	-0.10877609
227	0xbde7dd50	-0.11321509
228	0xbde7b491	-0.11313737
229	0x3d654bb7	0.05598041
230	0xbdbfd461	-0.0936668
231	0xbe4ed62a	-0.20198885
232	0xbe461487	-0.19343768
233	0xbdacfc56	-0.08446567
234	0xbe36ad71	-0.178396
235	0xbe4e9735	-0.20174868
236	0xbe8b4d58	-0.27207446
237	0xbe8f6e16	-0.28013676
238	0xbe6345ba	-0.22194567
239	0xbe111b5b	-0.14170592
240	0xbe977d2f	-0.29587695
241	0xbe669c5c	-0.22520584
242	0xbe43cdfa	-0.19121543
243	0xbde1aa33	-0.11018791
244	0xbe9bced7	-0.30431244
245	0xbeb90550	-0.36136866
246	0xbe1e6dae	-0.15471527
247	0xbe46cfde	-0.19415233
248	0xbe29170c	-0.16512698
249	0xbe29ac5f	-0.1656966
250	0xbd4af0f1	-0.049546186
251	0xbd12d488	-0.035847217
252	0x3ddfe98a	0.10933216
253	0x3ddec5de	0.10877584
254	0x3c92bf1a	0.01791339
255	0x3d2ca4b3	0.042149257

conv1.bias f4 [6]
0	0xbec4cf3d	-0.3843936
1	0xbf15740e	-0.5838021
2	0xbe025ff3	-0.12731914
3	0x3ea4f135	0.32215276
4	0xbd060c81	-0.03272677
5	0xbd205b7c	-0.039149746

conv2.weight f4 [16, 6, 5, 5]
0	0x3d988531	0.07447279
1	0x3dfe8b75	0.12428943
2	0x3d35d4b2	0.044392295
3	0x3b752843	0.003740803
4	0x3d1950a1	0.03743041
5	0x3dedeb17	0.116171055
6	0x3e0eee5d	0.13958116
7	0x3c2cb661	0.010541529
8	0x3d14f256	0.036363922
9	0x3da5129c	0.0806019
10	0x3de97949	0.114000864
11	0xbc3001be	-0.010742603
12	0x3cb48fd5	0.02204124
13	0xbdbaef1f	-0.0912764
14	0x3de34aac	0.11098227
15	0xbb5a4e3d	-0.0033310794
16	0xbca1a09c	-0.019729905
17	0x3d186c50	0.03721267
18	0xbd2efb3f	-0.042720076
19	0xbcccafd2	-0.024986181
20	0xbc127b67	-0.008940554
21	0x3b875fce	0.004131294
22	0xbcd5401c	-0.026031546
23	0xbcdd8f60	-0.027045906
24	0x3c305208	0.010761745
25	0xbdc1b8f7	-0.09459107
26	0x3d729a13	0.059228968
27	0x3d5a355c	0.053273544
28	0x3e0ff764	0.14059216
29	0x3d6eb21f	0.05827534
30	0xbdde18b0	-0.108445525
31	0xbda7efa2	-0.08200003
32	0xbd0024b9	-0.03128502
33	0x3e1a1fac	0.15051144
34	0x3e3a0259	0.18164958
35	0xbd9011f6	-0.07034676
36	0x3a646a6b	0.0008713367
37	0xbe29413d	-0.16528793
38	0x3d11a416	0.035556875
39	0x3e587ba7	0.2114092
40	0xbe2d474c	-0.16921729
41	0xbe1fc0cb	-0.15600888
42	0xbbb7ee85	-0.0056131505
43	0x3cc7f588	0.02440907
44	0x3c7a974e	0.015294863
45	0x3c34d5be	0.011037288
46	0xbbfcd4c8	-0.007715795
47	0xbd890812	-0.066909924
48	0xbd380308	-0.044924766
49	0xbc4365a9	-0.011926093
50	0x3c8fb87b	0.017544022
51	0xbcb4094f	-0.021977095
52	0x3dff6443	0.12470295
53	0x3e7fa418	0.2496494
54	0xbd479445	-0.048725385
55	0xbe1082d9	-0.14112414
56	0xbd1408c5	-0.036141176
57	0xbd2b4ddf	-0.04182231
58	0x3e442b8d	0.19157238
59	0xbc5b2177	-0.013374678
60	0xbdf71234	-0.12064019
61	0x3d215215	0.03938492
62	0x3cc6146d	0.024179662
63	0xbd6a87b2	-0.057258315
64	0x3e33da54	0.17563754
65	0xbe2d04f5	-0.16896422
66	0xbd1e68ce	-0.03867417
67	0x3db90ff6	0.090362474
68	0xbe028430	-0.12745738
69	0x3d1e4769	0.03864232
70	0xbd5efaa9	-0.054438267
71	0xbd863b81	-0.06554318
72	0xbd0a58f1	-0.033776227
73	0x3d282725	0.041052956
74	0x3d9f2347	0.077704005
75	0xbe22bcbc	-0.15892309
76	0xbe40f8ef	-0.1884496
77	0xbe0a9d93	-0.13536672
78	0xbe4975b2	-0.19673803
79	0xbd882562	-0.06647755
80	0xbdcdf691	-0.100567944
81	0xbd26a455	-0.040684063
82	0xbdaac4fe	-0.083383545
83	0xbe1690c3	-0.1470366
84	0xbde16fc5	-0.110076465
85	0xbe2f3d6e	-0.17113277
86	0xbc06671b	-0.008203293
87	0xbe3006eb	-0.17190139
88	0xbdcfbf95	-0.10143963
89	0xbdd7e9dd	-0.10542653
90	0xbe0b6c0d	-0.13615437
91	0xbdd4d540	-0.10392237
92	0xbe1a72fb	-0.15082924
93	0xbe3469a9	-0.17618431
94	0xbdf11bc5	-0.11772875
95	0xbe194d21	-0.14970829
96	0xbdeba789	-0.11506564
97	0xbe15f207	-0.14643107
98	0xbe3a11b2	-0.18170813
99	0xbe156c3a	-0.14592066
100	0x3a600ee3	0.000854714
101	0x3d741cd8	0.05959782
102	0x3d4eedbb	0.050519686
103	0xbdd4cd41	-0.103907116
104	0xbdbe55ff	-0.09293746
105	0x3e162649	0.14663042
106	0x3d923778	0.07139486
107	0xbdbbfe08	-0.09179312
108	0xbdd5e92a	-0.10444863
109	0xbe10d299	-0.14142837
110	0x3d6253e3	0.05525578
111	0xbb5ea512	-0.0033972901
112	0xbd7a97d1	-0.06117994
113	0xbdca16b3	-0.09867611
114	0xbe356c71	-0.17717148
115	0x3de7e9bf	0.113238804
116	0xbac3f9f3	-0.001495181
117	0xbd2df7c4	-0.042472616
118	0xbd9ba81f	-0.07600426
119	0xbc5c45bb	-0.013444359
120	0x3d6ed86b	0.05831186
121	0x3d541689	0.051779304
122	0xbd845c60	-0.06462932
123	0xbcaf0df1	-0.021368952
124	0xbc0c216f	-0.008552893
125	0xbc92c3f6	-0.017915707
126	0xbe04f266	-0.12983093
127	0x3c220bfc	0.009890553
128	0x3d34bcea	0.044125475
129	0xbe13ffaf	-0.14453004
130	0x3ccb2a93	0.024800574
131	0xbc9004e9	-0.017580466
132	0xbe351829	-0.17684998
133	0x3d007db7	0.03136989
134	0xbca77a01	-0.020443918
135	0xbca4e339	-0.02012788
136	0x3d9740ca	0.073854044
137	0xbd9dbf09	-0.07702453
138	0x3cec4b95	0.028844634
139	0x3d777b6e	0.060420446
140	0x3ccfc82c	0.025364004
141	0x3d8ddbb9	0.069266744
142	0x3dfcdece	0.12347184
143	0xbdebd21b	-0.11514684
144	0xbcd180a3	-0.025574034
145	0xbdd854d0	-0.10563052
146	0x3d2e754d	0.042592335
147	0x3cc9d87c	0.02463936
148	0xbbdec9e0	-0.0067989677
149	0xbd7ffc1f	-0.0624963
150	0xbd21553f	-0.039387938
151	0xbd4bbf00	-0.0497427
152	0xbc9b7ae3	-0.018979495
153	0xbbe7444e	-0.007057703
154	0xbc0c628b	-0.008568416
155	0x3da1c52e	0.07898937
156	0x3db5d31a	0.08878155
157	0xbd931b98	-0.071829975
158	0xbdd49b4e	-0.103811845
159	0xbd8d0341	-0.06885386
160	0xbda95576	-0.082682535
161	0xbb142895	-0.0022607197
162	0x3cf107e4	0.029422708
163	0xbdbf1482	-0.093300834
164	0xbcc74e55	-0.024329344
165	0xbbd904e8	-0.0066228993
166	0xbdbe71b1	-0.09299029
167	0x3d58fc5a	0.052975036
168	0x3cdeed66	0.02721281
169	0xbe17e983	-0.14835171
170	0xbc9f8a10	-0.019475013
171	0xbc4fab97	-0.012675188
172	0xbd8f4b9f	-0.069968455
173	0xbd598edf	-0.053114768
174	0xbd752afa	-0.05985544
175	0x3e0adcb7	0.13560759
176	0xbd572c1b	-0.052532297
177	0xbe4f9d75	-0.20274909
178	0xbe3ab85a	-0.18234387
179	0xbea22f7e	-0.3167686
180	0x3dcc5b75	0.099783815
181	0x3dc822f7	0.09772294
182	0xbc4366d5	-0.011926373
183	0xbd892086	-0.066956565
184	0xbe8d9b24	-0.27657425
185	0xbe05ac9a	-0.13054124
186	0xbcd71d8f	-0.026259212
187	0x3c7c8d48	0.015414543
188	0xbe001b09	-0.12510313
189	0xbe387837	-0.18014608
190	0xbc9b800e	-0.01898196
191	0xbe5ea82b	-0.21743838
192	0xbdaf8ed8	-0.08572167
193	0xbdbaaa44	-0.09114507
194	0xbe05f791	-0.1308272
195	0xbd80e305	-0.062933005
196	0xbd8daebc	-0.069180936
197	0xbe9971cb	-0.2996963
198	0xbe83f5be	-0.25773424
199	0xbe324659	-0.17409648
200	0x3eaf849b	0.34280857
201	0x3e0306fc	0.12795633
202	0xbd5e9953	-0.05434544
203	0xbd1094bf	-0.035298105
204	0x3d6d9d37	0.05801126
205	0x3de18317	0.110113315
206	0x3e6fcfe7	0.23419152
207	0x3d25422c	0.04034631
208	0xbd92a959	-0.07161207
209	0xbe392697	-0.18081127
210	0xbda2bf34	-0.07946625
211	0xbc99c9a6	-0.018772911
212	0x3e38f1f3	0.18061046
213	0xbd44c961	-0.048043612
214	0xbd519f92	-0.05117757
215	0x3af0fadc	0.0018385309
216	0xbdb93fd0	-0.090453744
217	0xbda3f87b	-0.08006378
218	0x3d5d9438	0.05409643
219	0x3c41d553	0.011830646
220	0x3dcc595b	0.09977981
221	0x3dc2785a	0.094956115
222	0x3bcfed22	0.006345407
223	0xbd121e1e	-0.035673253
224	0xbde6be55	-0.11266772
225	0xbd043f1a	-0.03228674
226	0xbda05156	-0.078280136
227	0xbd071f04	-0.032988563
228	0xbded868e	-0.1159793
229	0xbe19bbc3	-0.15013032
230	0x3d4c0e57	0.049818363
231	0xbcfc46b4	-0.030795433
232	0xbdd51813	-0.104049824
233	0xbe1b0dcf	-0.15141986
234	0xbd2bc620	-0.041936994
235	0x3e1577b3	0.14596443
236	0x3d34dd37	0.04415628
237	0xbd2c0330	-0.041995227
238	0xbda0e51d	-0.078562
239	0xbd096f7a	-0.033553578
240	0x3e37ab37	0.17936407
241	0xbcb2f273	-0.021844124
242	0xbe10c3b7	-0.1413716
243	0xbe2d5047	-0.16925155
244	0xbdc5656c	-0.09638485
245	0x3dc7a4b2	0.0974821
246	0x3d95bbc5	0.07311205
247	0xbd8d811a	-0.0690939
248	0xbdd7f7c9	-0.10545308
249	0xbe11eb9d	-0.14250036
250	0xbd84edbd	-0.064906575
251	0xbdf5f493	-0.120095395
252	0xbe5fbe73	-0.21849994
253	0xbe3185cd	-0.17336197
254	0xbe4fbfe6	-0.20288047
255	0xbda3cad2	-0.07997669

conv2.bias f4 [16]
0	0x3e026004	0.1273194
1	0x3f7e2355	0.9927266
2	0x3e147f03	0.14501576
3	0x3e13e43c	0.14442533
4	0xbe3f21b0	-0.18665195
5	0xbeaccda5	-0.33750644
6	0xbd84ceb1	-0.06484736
7	0xbc06648f	-0.008202686
8	0x3e835f17	0.25658485
9	0xbeac7cab	-0.33688864
10	0x3e1bb0cd	0.15204163
11	0xbf00ce63	-0.5031492
12	0x3ea33e27	0.31883356
13	0xbdeedd25	-0.11663274
14	0xbd70d1c0	-0.058793783
15	0xbeb52100	-0.3537674

fc1.weight f4 [120, 400]
0	0x3cdafbd4	0.02673141
1	0xbd1f499a	-0.03888855
2	0x3cd580f3	0.026062464
3	0xbb65fa54	-0.0035091834
4	0x3c57c1f6	0.0131688025
5	0xbd2fa4fe	-0.04288196
6	0x3c7e266f	0.015512093
7	0x3d622881	0.05521441
8	0xbc9c6ed9	-0.019095825
9	0x3c929783	0.017894512
10	0xbd16e9e0	-0.036844134
11	0xbc6e928a	-0.014561305
12	0xbc23e208	-0.0100026205
13	0xbb582e5f	-0.0032986624
14	0xbb72a697	-0.0037025565
15	0xbca7af97	-0.02046947
16	0xbc330ee8	-0.010928847
17	0xbd1cd6a0	-0.03829062
18	0xbc871345	-0.01648868
19	0xbd384f8c	-0.044997737
20	0xbd17ce35	-0.03706189
21	0x3c7970cf	0.01522465
22	0xbcbc845a	-0.023012329
23	0x3cf1a751	0.029498728
24	0x3d106858	0.03525576
25	0xbd650776	-0.05591532
26	0x3d14bbaa	0.036311783
27	0x3ca9a08d	0.02070644
28	0x3b0e35ba	0.0021699504
29	0x3cdb7e69	0.026793675
30	0x3c447592	0.011990922
31	0xbca698e2	-0.020336572
32	0xbd449640	-0.047994852
33	0x3d095f46	0.033538125
34	0x3a5a120d	0.000831873
35	0xbcab43ee	-0.020906415
36	0x3c7778cc	0.015104484
37	0xbc1caa21	-0.009562046
38	0x3ca4fc19	0.02013974
39	0xbd3566c4	-0.044287458
40	0xbcd0b840	-0.025478482
41	0x3b051a83	0.0020309992
42	0xbbee16a3	-0.007265882
43	0xbd7010f8	-0.058609933
44	0xbac8e650	-0.0015327428
45	0xbd17f858	-0.037102073
46	0x3a138729	0.00056277454
47	0xbc9dc55d	-0.01925915
48	0xbc441f0b	-0.011970292
49	0x3be807a0	0.007080987
50	0x3c81447b	0.015779724
51	0x3c1493ed	0.009068471
52	0xbcfc1c7d	-0.030775303
53	0x3cde5060	0.027137935
54	0x3cb4cbb1	0.022069784
55	0xbc5221aa	-0.012825409
56	0x3d03808b	0.03210501
57	0x3c421bc2	0.011847438
58	0x3d2771ec	0.04088013
59	0xbbd3b821	-0.006461159
60	0xbd0dd5ac	-0.0346276
61	0x3ca51938	0.020153627
62	0x3d2579e3	0.040399443
63	0x3baf65cd	0.005352712
64	0x3d1f9af1	0.038966123
65	0xba909c62	-0.0011032934
66	0xbd089b4c	-0.033351228
67	0xbd0b55c7	-0.03401735
68	0xbd128c9e	-0.035778634
69	0xbc40063d	-0.011720237
70	0x3be07dd0	0.0068509355
71	0x3ca22d36	0.019796949
72	0xbbfec5af	-0.0077750306
73	0x3c9587ef	0.018253295
74	0xb9424222	-0.00018525918
75	0x3cef0d41	0.029181125
76	0xbccf5f50	-0.025314003
77	0xbcbc2325	-0.022965977
78	0xbd39e262	-0.04538191
79	0x3cf39161	0.029732408
80	0x3bb4063b	0.005493907
81	0x3ce4dc68	0.02793713
82	0x3cd31a31	0.025769325
83	0x3d5e2c2d	0.054241348
84	0xba1cf23d	-0.0005987024
85	0xbbad5a07	-0.005290273
86	0xbcdd42b8	-0.027009353
87	0xb91f707e	-0.00015205328
88	0xbd3bf844	-0.04589106
89	0x3ced225a	0.028947044
90	0xbcb80c6c	-0.02246686
91	0x3ce73efc	0.028228275
92	0x3ce3812c	0.027771555
93	0xbcb5d9e2	-0.022198621
94	0xbc1199ee	-0.008886797
95	0xbaeab1f5	-0.0017905819
96	0x3d3814c6	0.044941686
97	0x3d41d81b	0.047325235
98	0xbcc8543a	-0.024454225
99	0x3c65e484	0.014031533
100	0xbd3550a2	-0.04426635
101	0xbcd3f5b1	-0.02587399
102	0xbb9e1066	-0.004823732
103	0xbd25bf2b	-0.040465515
104	0x3b35683b	0.0027680534
105	0x3d09b9f9	0.033624623
106	0xbd13f9e0	-0.03612697
107	0xbcaaa4a7	-0.020830465
108	0x3c2ba507	0.010476357
109	0xbd14e86d	-0.03635447
110	0xbd606056	-0.054779373
111	0x3b9463f0	0.004528515
112	0x3c7e7c18	0.015532516
113	0x3cbc6557	0.022997541
114	0xbc509a21	-0.01273206
115	0xbc9c7e53	-0.019103205
116	0xbd1db815	-0.038505632
117	0xbd0b7252	-0.03404457
118	0x3c1a474f	0.009416415
119	0x3c2315d8	0.009953938
120	0x3d1e087e	0.038582318
121	0x3d5df19a	0.054185487
122	0x3cc6055b	0.024172476
123	0xbbf4a4b4	-0.007465923
124	0x3cfabcec	0.030607663
125	0xbd41a2c0	-0.04727435
126	0xbc4aab4f	-0.012369945
127	0x3ca541d0	0.020172983
128	0xbd3562f9	-0.04428384
129	0x3cba6c66	0.022756767
130	0xbcb96c21	-0.022634568
131	0xbccdb4d0	-0.025110632
132	0xbd4aef77	-0.049544778
133	0xbd118766	-0.035529517
134	0x3d087501	0.03331471
135	0xbd1355dc	-0.035970554
136	0x3baf7335	0.00535431
137	0x3d4153d2	0.047199078
138	0xbd35b3f5	-0.044361074
139	0xbd012713	-0.031531405
140	0x3bc99312	0.0061515654
141	0xbcbc82c9	-0.023011582
142	0x3d2a8ce4	0.04163827
143	0x3d451af1	0.048121396
144	0x3d754550	0.059880555
145	0xbb53292e	-0.003222059
146	0xbb9f6bee	-0.004865161
147	0x3cc65412	0.02421001
148	0x3cde9d15	0.027174512
149	0xbc592c9c	-0.013255265
150	0x3d4a31b9	0.049363825
151	0x3cdd3287	0.027001632
152	0x3b931524	0.004488604
153	0xbc6f75eb	-0.014615516
154	0x3cd04a72	0.025426123
155	0xbd017faa	-0.03161589
156	0xbcdc9406	-0.026926052
157	0xbcbe20c6	-0.023208987
158	0x3b6e3a28	0.0036350582
159	0xbbcda0a7	-0.006275255
160	0x3d10938f	0.035296973
161	0xbc27263c	-0.010201987
162	0xbbfff658	-0.007811349
163	0xbd0db56a	-0.034596838
164	0x3ca669cb	0.020314118
165	0xbb962455	-0.004581968
166	0xbc168280	-0.009186387
167	0x3d460bd9	0.048351143
168	0x3d11d58f	0.035604056
169	0xbd522f28	-0.051314503
170	0xbd37b447	-0.04484966
171	0xbd322a58	-0.043497413
172	0xbd321cf3	-0.04348464
173	0xbcc9f636	-0.024653535
174	0x3bc39506	0.0059686927
175	0xbd556ea0	-0.052107453
176	0x3b2f980e	0.0026793513
177	0x3b8f2d4b	0.004369413
178	0x3c29c6a8	0.010362305
179	0x3c53a06d	0.012916666
180	0x3ba53c46	0.0050425855
181	0x3ca3607e	0.019943472
182	0x3d3cc3cb	0.04608516
183	0x3c7a75f0	0.015286908
184	0xbd0a397b	-0.033746224
185	0xbd5bc983	-0.053658973
186	0x3c082fb0	0.008312151
187	0x3cb99a28	0.022656515
188	0xbc8927c7	-0.0167426
189	0x3ca20da0	0.019781888
190	0x3d04ec0a	0.032451667
191	0x3cf1a494	0.029497422
192	0xbce588ba	-0.028019298
193	0x3d300ab1	0.042978946
194	0xbd3045f7	-0.043035474
195	0xbd0832e0	-0.033251643
196	0x3c6c2bbd	0.014414725
197	0xbd1ce943	-0.038308393
198	0xbc43cd08	-0.011950739
199	0xbca2ac2e	-0.019857492
200	0x3be20620	0.006897703
201	0xbd08e709	-0.033423457
202	0xbc0b3d9d	-0.0084985765
203	0xbcb9a6a8	-0.022662476
204	0xbd009c2c	-0.031398937
205	0x3c585a28	0.013205089
206	0x3ce9cee7	0.028541042
207	0xbd0d405f	-0.034485217
208	0x3d0756dc	0.03304182
209	0xbd24de0d	-0.040250827
210	0x3b68996c	0.0035491837
211	0xbc9ef46a	-0.019403655
212	0x3d32c5a4	0.043645516
213	0x3cb88163	0.022522634
214	0x3841ea3e	4.623294e-05
215	0x3bf98012	0.007614144
216	0x3c96f127	0.018425537
217	0xbc5c2dc0	-0.013438642
218	0x3cab1e30	0.020888418
219	0x3d1f4924	0.03888811
220	0xbd5748cf	-0.05255967
221	0xbc6f0c5b	-0.014590348
222	0xbd5aa888	-0.05338338
223	0xbd3c1670	-0.045919836
224	0xbca46465	-0.020067403
225	0xbcb2c7c5	-0.021823773
226	0xbd551ac0	-0.052027464
227	0xbd3598da	-0.044335224
228	0x3d2ee875	0.042702157
229	0xbd311263	-0.043230426
230	0xbd2ba289	-0.041903052
231	0x3d560833	0.052253913
232	0x37a68524	1.985074e-05
233	0x3d5495f5	0.051900823
234	0x3d7ae6fa	0.061255433
235	0xbd33ccd7	-0.043896522
236	0x3d170abf	0.036875483
237	0xbc2c8216	-0.010529062
238	0xbd00bd7b	-0.031430703
239	0x3ca4ebd9	0.020131992
240	0x3d1bcfa4	0.03803982
241	0x3cbde87e	0.02318215
242	0xbbe8e40c	-0.0071072634
243	0x3c24c254	0.010056097
244	0x3c8ba937	0.017048461
245	0x3bc8611c	0.006115092
246	0x3c6f1e34	0.014594603
247	0xbcf65834	-0.030071355
248	0xbc0f4bc1	-0.0087460885
249	0xbc8b6834	-0.017017461
250	0xbcbad81e	-0.02280813
251	0xbd27d360	-0.040973067
252	0xbd42f30d	-0.047595073
253	0xbd4dae68	-0.050215155
254	0xbb42fb91	-0.0029751996
255	0x3d536578	0.05161044

fc1.bias f4 [120]
0	0xbadb0bd4	-0.0016711899
1	0x3d6e3f6b	0.05816595
2	0x3dc7769f	0.09739422
3	0xbd09c433	-0.033634376
4	0xbdb7fd3f	-0.0898385
5	0xbd9ba369	-0.075995274
6	0x3b87502c	0.0041294303
7	0x3dac612b	0.08416971
8	0x3dc97ad9	0.098378845
9	0x3de859b9	0.11345238
10	0x3de7b0b1	0.11312998
11	0xbd28f30b	-0.04124741
12	0x3e4839e2	0.1955333
13	0x3e13f2a1	0.14448024
14	0x3beadc18	0.0071673505
15	0x3abbb780	0.0014321655
16	0xbe4c1fc2	-0.1993399
17	0xbce5156c	-0.027964316
18	0x3d15782e	0.036491565
19	0x3c66559a	0.014058495
20	0xbd017284	-0.03160335
21	0xbd604bd0	-0.0547598
22	0x3d19c9c9	0.037545953
23	0xbc4248bf	-0.011858164
24	0x3e2cf9af	0.16892122
25	0x3d6a5eb3	0.05721922
26	0x3d5ddec5	0.054167528
27	0xbd3584b8	-0.044316024
28	0x3dedd4c8	0.116128504
29	0xbccced46	-0.025015485
30	0x3d48d908	0.049035102
31	0xbcdabe21	-0.026701989
32	0x3e2280e1	0.15869476
33	0xbbd9ff12	-0.006652721
34	0x3db30051	0.08740295
35	0x3e29e2fa	0.16590491
36	0xbd29fc1c	-0.041500196
37	0x3bc11d34	0.005893374
38	0x3c3c224d	0.011482787
39	0x3da6fa73	0.08153238
40	0x3c487e5b	0.012237157
41	0x3dd96d52	0.10616554
42	0xbb9b65f4	-0.0047423784
43	0x3e1cf2d6	0.1532701
44	0x3a667e31	0.00087926077
45	0xbd5ea81a	-0.054359533
46	0xbd49aee3	-0.04923905
47	0xbd66d6d3	-0.056357216
48	0xbde20211	-0.110355504
49	0x3e145abd	0.14487739
50	0x3e124131	0.14282681
51	0xbcf0882e	-0.02936181
52	0xbd191e61	-0.037382487
53	0xbd2f6a3d	-0.042825926
54	0xbd1a7bad	-0.037715603
55	0x3d657c95	0.056027014
56	0xbcc6ea56	-0.024281662
57	0x3cb4665a	0.022021461
58	0xbe119a02	-0.14218906
59	0x3e03ccd5	0.12871106
60	0xbe1a0811	-0.1504214
61	0xbdd37fcb	-0.10327109
62	0xbd8578e9	-0.065172024
63	0x3c585726	0.013204372
64	0xbd651766	-0.055930518
65	0x3ce35ea4	0.02775509
66	0xbd0a524a	-0.033769883
67	0xbd76293c	-0.060097918
68	0xbcf5215d	-0.029923135
69	0x3dc119f9	0.09428782
70	0x3df77cd9	0.1208436
71	0x3dd1e665	0.102490224
72	0x3d07c3d0	0.033145726
73	0xbcd9b42b	-0.026575169
74	0x3c82840c	0.015932105
75	0xbb46d3a6	-0.0030338555
76	0x3d7a9c99	0.0611845
77	0xbd433675	-0.047659356
78	0xbd8016eb	-0.06254371
79	0xbd1c38b3	-0.03814001
80	0x3d4b35aa	0.049611725
81	0x3e86bc1f	0.263154
82	0x3c6fad1e	0.014628677
83	0x3d219eb0	0.039457977
84	0x3da2f59a	0.07957001
85	0x3dd29d39	0.10283894
86	0x3a1e2583	0.00060328114
87	0xbce1e679	-0.027575718
88	0x3d16ce83	0.03681804
89	0xbd902f76	-0.070403025
90	0xbd1975fb	-0.03746603
91	0xbd493b26	-0.049128674
92	0x3d2b97a0	0.041892648
93	0xbb35ec2f	-0.0027759185
94	0x3bf3275a	0.0074204626
95	0xbd0df331	-0.034655754
96	0x3e16875f	0.14700077
97	0xbdfeb842	-0.12437488
98	0xbd8f4f50	-0.069975495
99	0xbe3a31aa	-0.18183008
100	0x3dda71f1	0.10666264
101	0xbe096b9f	-0.1341996
102	0xbd41a185	-0.047273178
103	0x3da9b49e	0.08286403
104	0xbd39119b	-0.045182806
105	0x3e2549ef	0.16141485
106	0x3d8bdee8	0.06829625
107	0xba945448	-0.0011316622
108	0x3cdcb5b6	0.026942115
109	0x3da8eb29	0.08247978
110	0x3d512e10	0.05106932
111	0x3e6e1da8	0.232535
112	0xbaa5c6cc	-0.0012647747
113	0x3c0d827c	0.008637067
114	0x3b46bf7d	0.0030326538
115	0x3cd33d94	0.025786199
116	0xbc25c90d	-0.010118735
117	0x3e1a103c	0.15045255
118	0x3d8e17e9	0.06938154
119	0x3d0de91e	0.034646146

fc2.weight f4 [84, 120]
0	0x3d8c7268	0.06857759
1	0x3b8f0a78	0.0043652616
2	0xbdb4cb5d	-0.08827851
3	0x3dac09a8	0.08400279
4	0xbdc263ba	-0.094916776
5	0x3d6cf20f	0.057848033
6	0xbcf0039b	-0.029298594
7	0xbc88ed04	-0.01671458
8	0x3d00cb11	0.03144366
9	0xbd25cec6	-0.040480398
10	0xbd962fc8	-0.07333332
11	0x3d763be1	0.0601157
12	0xbc4d562f	-0.012532755
13	0xbd5be84a	-0.053688325
14	0x3da0f16f	0.0785855
15	0xbd8a366e	-0.06748663
16	0x3d70c70c	0.058783576
17	0xbdb96e09	-0.09054191
18	0xbdb344a3	-0.08753326
19	0xbd868e02	-0.065700546
20	0x3d8089aa	0.06276257
21	0x3d5278d5	0.051384766
22	0x3d8f1e93	0.069882534
23	0xbd5a12fd	-0.053240765
24	0x3caaea34	0.02086363
25	0xbd981699	-0.07426185
26	0xbd9a52e5	-0.07535342
27	0xbdc8e568	-0.09809381
28	0xbda05af5	-0.07829849
29	0x3c6dbbd0	0.01451011
30	0xbc6e1891	-0.014532224
31	0xbd497d1e	-0.049191587
32	0x3d6b710f	0.057480868
33	0xb9ed420f	-0.0004525338
34	0xbd9857c4	-0.07438615
35	0xbd2ddac0	-0.042444944
36	0xbda67359	-0.081274696
37	0x3c9bc83b	0.019016376
38	0x3d4f6aab	0.050638836
39	0x3cacd0d1	0.021095665
40	0x3d9a5fe5	0.07537822
41	0xbbebf0a9	-0.00720032
42	0xbae9f394	-0.0017849081
43	0xbcaab54c	-0.020838402
44	0x3c5bad44	0.013408009
45	0x3d11eee7	0.035628226
46	0x3d6b2749	0.057410512
47	0x3c671e8b	0.014106403
48	0xbdc0547b	-0.09391113
49	0xbda140af	-0.078736655
50	0x3d53b616	0.051687323
51	0xbd9ee439	-0.07758374
52	0x3da58e4e	0.08083783
53	0xbcaea263	-0.021317666
54	0xbd4dc2ba	-0.050234534
55	0x3cf44f4a	0.029822964
56	0xbd2f8f9e	-0.042861573
57	0x3d8ebfae	0.06970154
58	0xbda2d870	-0.079514384
59	0xbd527d0a	-0.051388778
60	0xbd8d6716	-0.06904428
61	0x3d5ddd88	0.054166347
62	0x3d50e6a9	0.051001225
63	0x3c70cbe6	0.014697051
64	0x3d017c70	0.031612813
65	0x3ce292a8	0.027657822
66	0x3d10030e	0.035159163
67	0x3d12f415	0.035877306
68	0x3d96f3fb	0.07370754
69	0xbd91bcfd	-0.07116125
70	0xbd93e06e	-0.07220541
71	0xbd88cffe	-0.06680296
72	0xbc807a07	-0.015683187
73	0x3c8a55ac	0.016886555
74	0x3c257681	0.010099054
75	0x3d72563d	0.059164274
76	0xbd97e52f	-0.0741676
77	0x3d07ab4e	0.033122353
78	0x3cc50655	0.02405087
79	0xbccf97e8	-0.02534099
80	0xbd827d60	-0.0637157
81	0xbd8d13de	-0.06888555
82	0x3d0e2aba	0.034708716
83	0xbd12b14a	-0.035813607
84	0xbc7c712a	-0.01540784
85	0x3d76d539	0.06026194
86	0xbdb11af6	-0.086477205
87	0xbbd233f9	-0.006414887
88	0x3b99fd68	0.004699398
89	0x3c84eb06	0.01622535
90	0xbcede6c6	-0.029040705
91	0xbccbd1a2	-0.024880234
92	0xbd0cef0b	-0.034407657
93	0x3c0b6dce	0.008510066
94	0xbcde7845	-0.027156958
95	0x3be4acd3	0.00697861
96	0x390c15e8	0.00013359601
97	0xbdf9e670	-0.122021556
98	0x3c0a5ded	0.008445245
99	0x3a3bcb73	0.00071638
100	0xbd6e4066	-0.058166884
101	0x3d1c3fbb	0.038146716
102	0xbdabd9af	-0.08391129
103	0x3c90db35	0.017682651
104	0x3db24c76	0.0870599
105	0x3da2d62a	0.07951005
106	0xbd1c1237	-0.03810331
107	0x3c95ab0b	0.018270036
108	0xbcb895ed	-0.022532428
109	0xbd6260b6	-0.055268012
110	0x3d9ae23a	0.075626805
111	0x3d953ff9	0.072875924
112	0x3d959b0d	0.07304964
113	0x3dac4aa6	0.084126756
114	0x3bf89bf7	0.007586952
115	0x3d353295	0.044237692
116	0xbdb1540f	-0.08658611
117	0xbce90300	-0.028443813
118	0xbd645590	-0.05574566
119	0x3d016742	0.031592615
120	0x3da0afaa	0.07846005
121	0x3d39cfbe	0.045364134
122	0xbdaaf915	-0.0834829
123	0xbde032c2	-0.10947181
124	0xbd185dda	-0.03719888
125	0x3cf5dda0	0.030012906
126	0xbbc07cbc	-0.0058742445
127	0x3d2b9e8e	0.041899256
128	0x3d58e69f	0.052954312
129	0x3c58948a	0.013219008
130	0xbdc4f696	-0.09617345
131	0x3c9f96d9	0.01948111
132	0x3d686871	0.056740228
133	0xbc32708b	-0.01089109
134	0xbd278b62	-0.04090441
135	0x3da101e1	0.078616865
136	0xbdcfe371	-0.10150803
137	0xbd86910f	-0.065706365
138	0xbdab1abb	-0.08354708
139	0x3de4770c	0.11155519
140	0xbcfec390	-0.03109911
141	0xbd33dfed	-0.043914724
142	0x3cb47ef6	0.022033196
143	0xbdb676f5	-0.08909408
144	0x3d811bc0	0.06304121
145	0x3dcce093	0.10003772
146	0x3d74ea7e	0.05979394
147	0x3cb5d1f6	0.022194844
148	0xbd099e91	-0.033598486
149	0x3b412945	0.0029474061
150	0xba405060	-0.00073361956
151	0xbbcb0d0f	-0.006196625
152	0xbd068260	-0.03283918
153	0x3c01b93f	0.007917701
154	0x3d90cd4c	0.07070407
155	0x3baf1c5b	0.0053439564
156	0x3cab6069	0.020919995
157	0xbd624406	-0.055240653
158	0x3caf5528	0.02140291
159	0xbd1b07ea	-0.037849344
160	0xbdb7d504	-0.089761764
161	0x392ccbc2	0.00016479104
162	0xbd19f0e6	-0.037583254
163	0x3b7fe07f	0.0039043722
164	0x3d64e38e	0.055881076
165	0x3bcb316b	0.0062009594
166	0xbda3b490	-0.07993424
167	0x3ce9056f	0.028444974
168	0x3d10173f	0.03517842
169	0x3cac9803	0.021068579
170	0x3d798a69	0.060923014
171	0x3b834b20	0.0040067583
172	0x3cf86a94	0.030324258
173	0xbcbf7e18	-0.023375556
174	0x3c63197b	0.0138610555
175	0xbc281e30	-0.0102611035
176	0x3c104d6b	0.00880752
177	0xbdbbb05d	-0.09164498
178	0x3d579e9e	0.052641504
179	0xbd3b5603	-0.045736324
180	0xbc4ca39e	-0.012490181
181	0xbd884d62	-0.066553846
182	0xbd7a19e9	-0.061059866
183	0x3db41ff1	0.08795155
184	0x3d40bbb2	0.047054
185	0xbd56096f	-0.05225509
186	0x3d63cdb0	0.05561608
187	0xbc86a498	-0.016435906
188	0xbd049e89	-0.032377753
189	0xbda0762b	-0.07835039
190	0x3c2d1207	0.01056338
191	0x3d727dfa	0.05920217
192	0xbcc5c94e	-0.024143841
193	0xbc96602d	-0.018356407
194	0xbd9916a3	-0.07475021
195	0xbda39bd3	-0.079887055
196	0x3d0ce9ed	0.034402777
197	0xbccd3971	-0.025051804
198	0xbda8fb81	-0.082510956
199	0x3dd65a29	0.104664154
200	0x3c6827e6	0.014169669
201	0xbcd77ffe	-0.026306149
202	0xbd2c6f2a	-0.0420982
203	0xbd8ba539	-0.06818623
204	0x3cad3d7c	0.021147482
205	0xbcfc3bff	-0.030790327
206	0x3d635cae	0.055508308
207	0x3b149625	0.00226725
208	0x3b12fa4f	0.0022427028
209	0x3ca7505a	0.020424057
210	0x3cf1b531	0.029505344
211	0x3cc9cf7f	0.024635075
212	0x3b8d0c84	0.0043044705
213	0xbd0014ff	-0.031270023
214	0x3cfbfe34	0.030760862
215	0x3d323ebc	0.04351686
216	0xbd64b425	-0.05583586
217	0xbd83560c	-0.064128965
218	0xbd943951	-0.07237495
219	0xbdc5efe1	-0.09664894
220	0xbc51e11d	-0.012810019
221	0xbd880ca2	-0.066430345
222	0x3cdc2f26	0.02687795
223	0xbd999e83	-0.07500937
224	0xbc138d58	-0.009005867
225	0xbd6cf090	-0.057846606
226	0x3c898b4e	0.016790058
227	0xbd8a6843	-0.067581676
228	0x3d9c1e5a	0.076229766
229	0x3d711a72	0.05886311
230	0x3d0b6ea5	0.034041066
231	0xbd74012f	-0.05957144
232	0x3d65a1de	0.05606257
233	0xbdbab0a5	-0.091157235
234	0x3ceca3de	0.028886732
235	0x3d95b590	0.07310021
236	0xbdb385e2	-0.087657705
237	0x3b0752d4	0.0020648735
238	0xbcbb669d	-0.022876078
239	0x3dbcd304	0.092199355
240	0xbd97eca0	-0.074181795
241	0x3ce57f4f	0.028014807
242	0xbcf7b261	-0.030236425
243	0x3db7cbb9	0.08974404
244	0xbdd6dbcf	-0.10491144
245	0x3d151b26	0.036402844
246	0xbd6b055d	-0.05737816
247	0xbde687b6	-0.112563536
248	0x3c659c20	0.014014274
249	0x3d2688a7	0.040657666
250	0x3ba7c97d	0.005120455
251	0x3dbdb8bd	0.09263752
252	0xbd414351	-0.04718334
253	0x3d44fd21	0.048092965
254	0x3cd5fea6	0.026122402
255	0x3d6123f0	0.054965913

fc2.bias f4 [84]
0	0xbd4723d2	-0.048618145
1	0x3d424405	0.04742815
2	0xbdcc26f0	-0.09968364
3	0x3dfaadbc	0.122401685
4	0xbb89b557	-0.0042025256
5	0xbd99a868	-0.07502824
6	0x3d9fdea3	0.078061365
7	0x3e93c992	0.28864723
8	0xbd80671a	-0.06269665
9	0xbd5c687b	-0.053810578
10	0xbe08d7a7	-0.13363515
11	0xbd58b215	-0.052904207
12	0xbd9f74f8	-0.07785982
13	0xbd3ab5bb	-0.045583468
14	0x3e493b41	0.1965151
15	0xbb8ce1b3	-0.0042993664
16	0x3d8ab149	0.06772096
17	0xbdbfa401	-0.09357453
18	0x3c03693e	0.008020697
19	0x3e560d2b	0.2090346
20	0xbda5cd6a	-0.0809582
21	0xbdfb968d	-0.12284575
22	0x3e4f2ddf	0.20232342
23	0x3eb427c2	0.35186583
24	0xbe009d1c	-0.12559932
25	0xbdcaae33	-0.09896507
26	0xbce4b540	-0.027918458
27	0x3e827c0c	0.25485265
28	0x3e07d530	0.13264918
29	0xbd90b99b	-0.070666514
30	0x3e4ff67f	0.20308875
31	0xbac08cab	-0.001469036
32	0x3dfbf642	0.12302829
33	0x3d0f594a	0.034997262
34	0x3e1e9216	0.15485415
35	0x3e3e5fdd	0.18591256
36	0x3bb05981	0.0053817634
37	0x3e454bfa	0.19267264
38	0x3e59cede	0.2127032
39	0xbd15d373	-0.036578607
40	0xbcc6907b	-0.024238816
41	0x3d08b100	0.033371925
42	0x3d516e85	0.05113079
43	0xbca938fd	-0.020657057
44	0xbc9abe76	-0.018889647
45	0x3e532dc8	0.20622933
46	0xbda8784b	-0.08226069
47	0xbd8144ff	-0.06311988
48	0xbd4b5c95	-0.04964884
49	0x3eeb9405	0.46011367
50	0x3e739040	0.23785496
51	0xbd197f37	-0.037474837
52	0xbd0b640e	-0.034030966
53	0xbcb9203d	-0.02259838
54	0x3e75b140	0.23993397
55	0xbc4c8732	-0.012483405
56	0x3ead7b22	0.33883005
57	0xbd8d69bc	-0.06904933
58	0x3d3efa68	0.046625525
59	0x3e490691	0.19631411
60	0xbd92b363	-0.071631216
61	0xbdab006e	-0.08349691
62	0x3d12b264	0.035814658
63	0xbd27bff0	-0.04095453
64	0xbd6b6398	-0.057468027
65	0xbd2e9c72	-0.042629667
66	0x3e977cf9	0.29587534
67	0x3dd18c19	0.102318
68	0xbd982d3c	-0.07430503
69	0x3e0e0da8	0.13872397
70	0x3be46078	0.006969508
71	0x3d85e6ba	0.06538148
72	0x3d578315	0.052615244
73	0x3e612c1c	0.21989483
74	0x3e5c8c3d	0.21537872
75	0x3e494a33	0.19657211
76	0xbd4f8880	-0.050667286
77	0x3e5c0bd3	0.21488886
78	0xbe298fff	-0.16558836
79	0xbd04243a	-0.03226111
80	0x3de10e14	0.10989013
81	0x3e92739b	0.28603825
82	0xbda79bb6	-0.081839964
83	0x3e24cc6e	0.16093609

fc3.weight f4 [10, 84]
0	0x3c77d0be	0.015125452
1	0x3d5ad5e3	0.053426635
2	0xbdcc01fb	-0.09961315
3	0xbcf816e0	-0.030284345
4	0x3decab1b	0.11556073
5	0x3cf3aa1b	0.029744199
6	0xbd257be4	-0.040401354
7	0xbe0e9879	-0.13925351
8	0xbe07fb91	-0.13279559
9	0x3dc22e09	0.09481437
10	0x3dd39993	0.10332026
11	0x3c905218	0.01761727
12	0xbdc1c097	-0.09460562
13	0xbd3e9efd	-0.04653834
14	0x3d6eb599	0.058278654
15	0x3bcdf42e	0.006285212
16	0xbdacdb67	-0.08440285
17	0x3d7bf77b	0.061515313
18	0xbd9156c7	-0.070966296
19	0x3e742d53	0.23845415
20	0xbd8a90c2	-0.067658916
21	0x3e892d7f	0.26792523
22	0x3e43b85c	0.19113296
23	0xbe461efc	-0.19347757
24	0x3d90a571	0.070628054
25	0xbab33663	-0.0013672825
26	0x3e98f071	0.29870942
27	0xbd833520	-0.06406617
28	0x3c3985a4	0.011323366
29	0x3de8b7f8	0.11363214
30	0xbe488ea4	-0.19585663
31	0x3c918fd9	0.017768787
32	0xbd201bf5	-0.039089162
33	0xbdad62a0	-0.08466077
34	0xbd3e469c	-0.046454057
35	0x3cdd02d2	0.026978884
36	0x3e10d9bc	0.14145559
37	0xbd623d9f	-0.055234548
38	0xbe8faf86	-0.280636
39	0x3d8d6ee0	0.06905913
40	0x3dcbfacf	0.09959947
41	0xbc958724	-0.018252917
42	0xbdfba724	-0.12287739
43	0x3d9a2e56	0.07528369
44	0x3c8a25ab	0.016863665
45	0x3ecc00c6	0.3984434
46	0x3e783a8f	0.24241088
47	0x3d1943d3	0.037418198
48	0x3daa362b	0.08311113
49	0x3e1e28b8	0.1544522
50	0xbd14e6e5	-0.03635301
51	0x3a8291d3	0.0009961672
52	0x3dc38cf3	0.09548368
53	0x3da1f395	0.07907788
54	0x3e8c2151	0.27369168
55	0x3de90e47	0.11379676
56	0xbe4550b2	-0.19269064
57	0xbd78e3db	-0.060764175
58	0x3d980b6d	0.07424054
59	0xbd87f897	-0.066392116
60	0xbda1b528	-0.07895881
61	0x3dc8a45d	0.09796975
62	0xbe0b696d	-0.13614435
63	0x3d95f428	0.0732196
64	0x3dc3315a	0.095308974
65	0x3cc5b2f1	0.024133177
66	0x3d6e6bd9	0.05820832
67	0xbd19b871	-0.037529413
68	0xbe2402d0	-0.16016698
69	0x3e6a3cbd	0.22874732
70	0x3dc92df1	0.09823216
71	0xbb175168	-0.0023089293
72	0xbc6d3185	-0.014477138
73	0x3d18e33d	0.037326086
74	0x3e3b1a9c	0.1827187
75	0xbe571235	-0.21003039
76	0xbc2b2f8e	-0.01044835
77	0xbe9671f3	-0.2938381
78	0x3de8035b	0.11328765
79	0x3db392b7	0.08768218
80	0xbd651e73	-0.05593724
81	0xbd021bae	-0.03176468
82	0x3d69af3c	0.057051882
83	0x3d639dab	0.055570286
84	0x3d44fcfc	0.048092827
85	0x3d255f5e	0.040374152
86	0xbd9c55cd	-0.07633553
87	0x3cc7c38a	0.024385232
88	0xbd0d180a	-0.034446754
89	0x3d7c8c5d	0.0616573
90	0xbe03dbcd	-0.12876816
91	0xbd9d4487	-0.07679086
92	0xbe0d5f88	-0.13805974
93	0x3cba3b61	0.022733392
94	0x3eacdb60	0.3376112
95	0x3e488f8c	0.19586009
96	0x3e5eff96	0.21777186
97	0xbd1887f4	-0.03723903
98	0x3cbb290f	0.022846727
99	0x3cb07fae	0.021545257
100	0x3d6a7e3d	0.057249296
101	0x3bd59d48	0.0065189935
102	0xbd975cfc	-0.07390782
103	0x3e211dfe	0.15734097
104	0x3e7ce31b	0.24696009
105	0xbb4b93fd	-0.003106355
106	0xbe4fbc68	-0.20286715
107	0xbe91bd19	-0.28464583
108	0x3e4efbd3	0.20213251
109	0xbd3882fc	-0.04504679
110	0x3e6ce107	0.23132716
111	0xbced42c4	-0.0289625
112	0x3e25c3e7	0.16188012
113	0xbd82f9bb	-0.063952886
114	0xbdfeb30d	-0.12436495
115	0xbd260e88	-0.0405412
116	0xbbd8fd57	-0.0066219973
117	0xbd895163	-0.067049764
118	0x3d42542d	0.047443558
119	0x3cd2e809	0.025745409
120	0x3cddb112	0.027061973
121	0xbbb1ba4d	-0.00542382
122	0xbe1e166c	-0.15438241
123	0x3c963e55	0.01834027
124	0x3d36e881	0.044655327
125	0x3d610066	0.05493202
126	0xbe38769f	-0.18014
127	0xbdca3104	-0.0987263
128	0xbd056678	-0.032568425
129	0x3e10da5d	0.14145799
130	0x3b0d8663	0.0021594993
131	0x3dbd6386	0.09247498
132	0xbcbc76c9	-0.02300586
133	0xbe78d537	-0.24300085
134	0xbe924138	-0.28565383
135	0x3c85e554	0.016344704
136	0xbd2eb2be	-0.04265093
137	0x3d88c74a	0.06678636
138	0xbd2f635f	-0.042819377
139	0xbc61c604	-0.013780121
140	0xbeb48acc	-0.35262144
141	0xbdd0153d	-0.10160301
142	0x3d5280f5	0.051392514
143	0xbd544e8f	-0.05183273
144	0xbc99512c	-0.018715464
145	0x3cea8ec8	0.028632537
146	0x3e07a0ab	0.13244884
147	0xbd47b1b5	-0.04875346
148	0xbbddc767	-0.0067681554
149	0xbc50ccbe	-0.012744127
150	0xbe63967c	-0.22225374
151	0xbdc813c5	-0.09769396
152	0x3e5913c0	0.2119894
153	0xbe7c1948	-0.24619019
154	0xbcc6286e	-0.0241892
155	0x3ba843d1	0.0051350375
156	0x3d80b49d	0.06284449
157	0x3d59bd98	0.053159326
158	0xbe528a2e	-0.20560524
159	0x3dd5ad5a	0.10433455
160	0x3df738c5	0.12071375
161	0x3de0a8a5	0.109696664
162	0x3e975098	0.29553676
163	0xbdd77b29	-0.10521538
164	0xbd08af17	-0.033370104
165	0xbdab357b	-0.0835981
166	0x3e7834cc	0.2423889
167	0xbe5318ee	-0.20614979
168	0xbdd4a254	-0.10382524
169	0xbdb5d8c0	-0.088792324
170	0xbdc54ce3	-0.096338056
171	0xbdfd6929	-0.12373573
172	0xbbba2d9c	-0.0056817066
173	0x3cb09df4	0.021559693
174	0x3c9d1a1c	0.019177489
175	0x3dbd9c49	0.09258325
176	0x3e498799	0.19680633
177	0xbd91a8de	-0.07112287
178	0xbdb9ba31	-0.09068716
179	0xbe4b1144	-0.19830805
180	0x3bcff7f8	0.006346699
181	0xbb91f3c7	-0.0044541094
182	0xbe3d25cd	-0.18471451
183	0x3dd9effe	0.10641478
184	0xbd6f3488	-0.058399707
185	0xbd819b61	-0.06328464
186	0xbd85f7c4	-0.06541398
187	0xbdd92186	-0.10602097
188	0xbe369b42	-0.17832664
189	0x3d9f56ad	0.07780204
190	0x3da15c6a	0.07878955
191	0x3df8962c	0.12138018
192	0xbc1afab3	-0.009459185
193	0xbe5bd5b8	-0.21468246
194	0x3d98b177	0.07455724
195	0x3e434e91	0.1907294
196	0xbbe8794c	-0.007094538
197	0xbdd59572	-0.10428895
198	0x3d0d16bb	0.034445506
199	0xbd639b54	-0.055568054
200	0x3e60da3a	0.21958247
201	0x3ccf55cf	0.025309471
202	0xbcf89173	-0.030342793
203	0x3e2bbbb1	0.16770817
204	0xbe4ff79e	-0.20309302
205	0x3e4a2db5	0.19743998
206	0x3d2fc322	0.042910703
207	0xbdb8b6c8	-0.09019238
208	0x3da9e554	0.08295694
209	0x3dddcc71	0.1083001
210	0xbe25d0db	-0.16192953
211	0x3dbc7c99	0.092034526
212	0x3e083017	0.13299595
213	0x3dc91c6f	0.098198764
214	0x3d43e914	0.047829702
215	0xbe2dd158	-0.1697439
216	0x3dba709c	0.0910351
217	0x3eac5143	0.33655748
218	0x3dcef2b3	0.10104885
219	0x3d6ba337	0.0575287
220	0x3cb0574b	0.021526
221	0x3d1f9dae	0.038968734
222	0x3d920f7d	0.071318604
223	0x3d49b4e4	0.049244776
224	0x3d283892	0.041069575
225	0x3e0b7865	0.13620146
226	0x3d199ebb	0.037504893
227	0x3e2b9cde	0.16759059
228	0x3c914e35	0.017737487
229	0xbd55b16c	-0.052171156
230	0x3dffca99	0.12489814
231	0xbc89372c	-0.01674994
232	0xbda0d9a2	-0.0785401
233	0x3e519049	0.20465197
234	0x3d6d8ed8	0.057997555
235	0x3e09811a	0.13428155
236	0xbc6e8bcc	-0.014559697
237	0x3eb8e440	0.3611164
238	0x3e11b7ba	0.14230242
239	0xbe1ac7c9	-0.15115274
240	0x3d779a56	0.06044992
241	0xbad51c15	-0.001625898
242	0x3d9384bf	0.07203054
243	0x3e23a8a3	0.15982299
244	0x3d4e3361	0.050341967
245	0xbd2a34a3	-0.041554105
246	0xbe1a2520	-0.15053225
247	0xbdc5ae30	-0.09652364
248	0x3c2026ad	0.009774846
249	0x3e8354cf	0.2565064
250	0xbd920c7e	-0.07131289
251	0x3d7d59a3	0.061853062
252	0x3cf8cd06	0.0303712
253	0x3d8c3023	0.06845119
254	0xbdbb2ff8	-0.09140009
255	0xbddc74b1	-0.107644446

fc3.bias f4 [10]
0	0xbe963a85	-0.29341522
1	0xbf3323b7	-0.6997637
2	0x3d883468	0.06650621
3	0x3e317ff3	0.17333965
4	0x3f1203cd	0.5703705
5	0xbe51ad90	-0.20476365
6	0x3db7d412	0.08975996
7	0xbe16cd59	-0.14726771
8	0x3ec3c27d	0.3823432
9	0xbea1bddf	-0.31590173
