notebooks/Tutorials/Deploying PyTorch Models in Production/wrapped_rnn.pt (torch, 7844 bytes, 2 tensors)

weight f4 [4, 4]
000000 d2 a3 c2 be e0 0c d3 3c 9e fc ab 3e 98 be d9 be
       -0.3801561 0.025762975 0.3359117 -0.42528224
000010 14 22 95 be e8 a5 ec bd 98 e8 56 3e 0c d9 19 be
       -0.29127562 -0.115550816 0.20987165 -0.15024203
000020 46 f8 e8 3e 68 32 0e 3e 40 b5 17 bc 50 ea 15 3d
       0.45501918 0.13886416 -0.009259522 0.03660041
000030 e4 7f 86 be a0 91 a2 bc 3e 16 db be fc b5 43 3e
       -0.26269448 -0.01984483 -0.42790407 0.1911239

bias f4 [4]
000000 e0 05 e7 3d c8 2b 74 3e 08 f2 e2 be 00 c4 94 3a
       0.112804174 0.23844826 -0.4432528 0.0011349916
